examples/model_selection/optuna_results/1/FNN/custom_embeddings/hold_out_checkpoint.safetensors (safetensors, 133184 bytes, 4 tensors)

classifier.0.bias f4 [32]
000000 a3 26 48 3d 7c 05 21 3d 07 a3 86 3d 1e 31 af 3d
       0.04886497 0.03931187 0.06574064 0.0855429
000010 98 e3 d4 3d c5 80 83 3d b4 e9 97 3c 69 9b b7 3d
       0.103949726 0.06421045 0.018544056 0.08965189
000020 0d 1c 06 3c d3 95 40 3d d0 dd a2 3d 20 d6 ca 3d
       0.008185399 0.047017884 0.079524636 0.09904122
000030 f5 39 28 3d bb 04 c1 3c 8a 70 6a 3d 20 66 66 3d
       0.041070897 0.023561826 0.057236232 0.056249738
000040 f0 63 8b 3d 62 e7 98 3d b3 e6 37 3d 6d 83 81 3d
       0.06806171 0.07466008 0.044897746 0.063238956
000050 c3 f0 b4 3d 58 72 4a 3d bd f1 61 3d d1 76 93 3c
       0.08834984 0.049425453 0.05516218 0.018000992
000060 3d 89 94 3d 8a 57 21 3d 5d 26 1c 3d 3a c8 90 3d
       0.072527386 0.039390124 0.038122524 0.0706944
000070 a0 30 76 3d b2 72 3e 3d 0c 1e 53 3d 00 de 95 3d
       0.060104966 0.0464961 0.051542327 0.07317734

classifier.0.weight f4 [32, 1024]
000000 80 5e 8e 3d cc 5b b1 3d 53 15 91 bd a3 12 78 bd
       0.06951618 0.08660087 -0.070841454 -0.06056465
000010 06 a8 9e bd d6 48 20 bc c0 59 b4 3c b8 aa 8a bd
       -0.07746892 -0.00978299 0.022015452 -0.06770843
000020 70 bc 55 bd 45 ba 68 3d a8 1c 3e bd 5c da 86 bd
       -0.05218166 0.056818265 -0.046414047 -0.065846175
000030 0a 1b 87 3d 51 36 fa 3d 11 21 a0 3d 28 a9 bf bc
       0.06596954 0.12217391 0.07818807 -0.02339609
000040 f5 a7 97 3d 75 77 cc bc 06 5e 90 3c 57 f2 d3 3b
       0.07405082 -0.024959305 0.017622959 0.006468098
000050 d3 9d 5b 3c 61 d9 5b bd 35 6d 2f 3d 25 ee 1b 3d
       0.013404327 -0.053674106 0.042828757 0.03806891
000060 bf 0b ee bd a3 34 97 3c 7a 16 ee bc d8 ae dc bd
       -0.11623334 0.018457716 -0.029063452 -0.10775536
000070 6f 56 94 3d 21 16 8f bd e2 36 c5 bc 29 9f eb bc
       0.072430484 -0.06986643 -0.024074022 -0.028762417
000080 95 f5 aa bc de b7 60 3d ff dc 61 bd c6 f1 80 3d
       -0.020869056 0.05486285 -0.0551424 0.062961146
000090 2c ad c7 3d a3 03 c0 3d de 3a 33 3d e7 47 46 bd
       0.09749827 0.09375694 0.043757312 -0.048408415
0000a0 2a 90 1d 3d c2 84 66 bd f0 a5 b3 3d c9 fc bb 3c
       0.038467564 -0.05627895 0.087718844 0.022947686
0000b0 f6 8f 8b bd ea b6 5e 3d f8 7b b2 3d ee 96 2c bd
       -0.06814568 0.05437366 0.087150514 -0.042136125
0000c0 09 c7 e7 3c b6 0d c2 bd 13 f5 e0 bc 59 88 5c 3d
       0.02829315 -0.094752714 -0.02746061 0.05384097
0000d0 45 35 86 3c 5f 86 88 3d b0 7b 98 3d f0 0c ac 3d
       0.016382823 0.06666254 0.074454665 0.08400905
0000e0 ad b1 13 bd 07 e3 b0 bd 5d 92 25 3d 97 e5 99 3d
       -0.036058117 -0.08637052 0.040422786 0.07514494
0000f0 36 6b 82 bd a6 e9 22 3d 79 4b 86 bc 25 5c 0f 3d
       -0.06368105 0.039773606 -0.01639341 0.034999985
000100 0e 33 fb bc 8c 9b 0a 3d 39 18 cb bc b8 ca 95 bc
       -0.030663993 0.033839747 -0.024791824 -0.01828514
000110 2e cb 1e bd 69 f5 ab bd 92 91 dc bb f0 fd d2 bd
       -0.038767986 -0.08396418 -0.0067312205 -0.10302341
000120 3d f9 28 bc ac 7f ec 3c 40 a6 ba bd c4 7c 85 bd
       -0.010313329 0.028869472 -0.09113741 -0.06517938
000130 d3 a6 3d 3d e1 76 4c bd c3 7e 5b 3d 25 96 7c 3d
       0.046301674 -0.04991806 0.053587686 0.061666626
000140 c5 eb c1 bd 92 7e 43 bd 55 3d 26 3d 36 c1 c0 bd
       -0.094687976 -0.04772813 0.040585835 -0.09411852
000150 b0 18 0b bc 09 6e 8c bd 4a b6 ca 3d 64 f1 74 3c
       -0.008489773 -0.06856925 0.0989805 0.01495013
000160 f5 93 66 3d 9d a6 75 bc 86 40 ed 3d 2c 5f 15 bd
       0.056293447 -0.014993337 0.115845725 -0.036467716
000170 74 5f fc 3d 5f ac c1 bd f3 5a 57 bd f8 72 71 bd
       0.12322894 -0.09456705 -0.05257697 -0.058947533
000180 2c 38 86 bc de df 07 bd e2 12 1e bd a8 0d ee bc
       -0.016384207 -0.03317248 -0.038592227 -0.029059246
000190 1c 99 9d bd 05 1c 85 bd bb 65 6e bd 0e fd 1a 3d
       -0.07695219 -0.06499485 -0.058202486 0.037838988
0001a0 95 1f 2f bd 4d 59 f0 bc 0f 4b 10 bc cf 73 9b bd
       -0.04275473 -0.029339457 -0.008806958 -0.07590448
0001b0 50 93 4d bd eb e6 a3 3d ba ea d4 3b eb b6 23 bc
       -0.050189316 0.080030285 0.006497708 -0.0099923415
0001c0 ab b0 3e bd c9 17 ab bd 15 d8 be 3c f7 d0 35 3d
       -0.046555202 -0.08354146 0.023296395 0.044388738
0001d0 8b 15 02 3e ad 8b 8f 3d 73 5c 8b 3d 0a 0d 3b 3d
       0.1270353 0.07009063 0.06804743 0.045666732
0001e0 ac 48 30 3c 63 6b 7e bd ff b1 1a bd b3 7d ac bd
       0.010759514 -0.06211413 -0.037767407 -0.08422413
0001f0 b9 72 0c bd 75 0c 67 bc 3b f2 2c 3d 26 73 01 be
       -0.034289096 -0.014102091 0.042223196 -0.12641582
000200 c4 2d a1 bd 19 92 1f 3d 5c bc bd 3d 44 dc 27 bd
       -0.07870057 0.03895769 0.09264442 -0.040981546
000210 78 88 79 3c 39 6f 96 bd f4 87 15 bd 9a a7 31 3d
       0.015230291 -0.07345433 -0.036506608 0.043372728
000220 ed 29 22 3d 95 b8 ab bd 03 0a 68 bd 70 2e 6c bb
       0.039590765 -0.083848156 -0.056650173 -0.003603842
000230 ce 6c ad 3c cb 08 12 bd d6 17 08 3d 12 c0 44 3d
       0.021170046 -0.035652917 0.033225857 0.048034735
000240 74 6c 9d 3c 29 a8 3d 3d 5d c0 92 3c 10 ff b9 3d
       0.019216754 0.04630295 0.017913992 0.090818524
000250 9b d8 9b 3d cf 11 49 bd 71 38 9c bd e0 fa 9d bb
       0.076096736 -0.04908925 -0.07627953 -0.0048211664
000260 4e cb b8 bc 22 95 80 3d 14 e2 f9 3c 2f c4 2e bd
       -0.02255788 0.06278445 0.03050331 -0.042667564
000270 82 56 68 bb 66 d9 f0 3c 1e 5e c0 3d e4 99 16 bd
       -0.0035451953 0.029400539 0.093929514 -0.036767855
000280 cb 5c c7 bc e5 d0 3d bd f4 38 50 bd a6 3e a8 3c
       -0.02433624 -0.046341795 -0.050835565 0.020537686
000290 49 f6 1b bd e7 1a 84 bd 1b e6 5b bd 2f a5 5f bd
       -0.038076673 -0.06450444 -0.053686243 -0.05460089
0002a0 3b 85 5a 3d 9d e0 ac 3d 6a a6 f0 3b 40 5f 68 3d
       0.053349715 0.08441279 0.007344057 0.056731462
0002b0 b3 a8 70 3d 9a aa c2 bd a0 1c a5 3d 1c a9 89 bd
       0.058754634 -0.09505196 0.080621004 -0.06721708
0002c0 05 6c 9a 3b 12 58 ed bc 0f 96 c7 bd 43 33 91 3c
       0.004712584 -0.02897266 -0.09745418 0.017724639
0002d0 5f a6 19 3b d5 77 57 bc b4 52 9c 3c 3f 50 91 bd
       0.0023445112 -0.013151129 0.019082405 -0.07095384
0002e0 84 fd a9 3d 07 29 1c 3d 37 67 32 3d d2 8f bb bd
       0.083003074 0.038125064 0.043555465 -0.09158291
0002f0 82 7e 81 bd e8 46 51 3d c4 5a 2c 3d a0 3f c5 bd
       -0.063229576 0.051093012 0.04207875 -0.09631276
000300 bd 8d ea 3d 77 88 ef bc d2 9e 16 3d f4 22 76 bd
       0.11452816 -0.029239876 0.036772557 -0.060091928
000310 a7 0a 28 3d d3 d9 8f 3d e7 12 34 bd 04 e7 a0 3c
       0.041025784 0.070239685 -0.04396334 0.019641407
000320 40 60 15 38 88 f1 56 bc 84 ad 5e bc f0 91 74 3b
       3.5614008e-05 -0.013119109 -0.013591174 0.003731843
000330 4e 58 bc 3d dd e0 71 3c 92 91 03 3d c3 a4 b5 bd
       0.0919653 0.014763084 0.03212125 -0.088693164
000340 b9 5f d3 bd c7 3d 8d bd 15 d3 c8 3c 46 92 87 3d
       -0.10320992 -0.06896549 0.024514714 0.06619696
000350 7b 0e d6 3c e8 b2 03 3d 70 f2 04 bd 0b 10 3e 3d
       0.026129952 0.03215304 -0.03245777 0.04640202
000360 fb fe aa bd 70 36 3c bd 41 e8 67 3c 4c 47 ae bd
       -0.08349415 -0.045950353 0.014154495 -0.085096925
000370 0e 30 0a 3d 20 8a b4 3d 6b 6c 59 bd 37 69 50 3c
       0.033737235 0.08815408 -0.05308191 0.012720398
000380 f6 1a 4e bc a9 5f 55 3d 6c de a1 bc f2 d4 a4 bd
       -0.01257967 0.05209318 -0.01975938 -0.080484286
000390 e4 5e 1d 3d 90 d0 53 3d 64 7e 05 bd d3 c8 03 bd
       0.038420573 0.051712573 -0.03259124 -0.032173943
0003a0 21 7d 05 3e da e5 cd 3d cd ed a0 bd 56 f4 f9 3b
       0.13036014 0.10053606 -0.07857857 0.007628004
0003b0 fc fb 3d bc 97 65 64 3d 95 cb a5 bd 75 a0 e1 3c
       -0.011595722 0.055760946 -0.08095471 0.027542332
0003c0 ff 5c d3 3d 7f ac bf 3d be fc 7c bd 8e 87 5f bd
       0.10320472 0.09359073 -0.06176447 -0.054572634
0003d0 57 af ea b8 e9 40 bf bd b8 cc 99 bc 78 1d 98 3d
       -0.00011190649 -0.093385525 -0.018774375 0.07427496
0003e0 2c 44 2d 3d 61 4d 25 bc 12 75 69 3d 56 0b d5 bd
       0.042301342 -0.010089249 0.056996413 -0.10402553
0003f0 38 b4 6d 3b 7b ce 6e bd 18 b4 f9 3c 02 ed 78 3c
       0.0036270749 -0.058302384 0.030481383 0.015193226

classifier.3.bias f4 [12]
000000 05 69 29 bd 25 9c a6 bd a8 16 27 3d 99 70 0b 3c
       -0.04135992 -0.08135251 0.04079309 0.008510732
000010 a7 aa db 3d 5f 03 63 3d 7f 10 ad bd f3 12 01 3e
       0.10725909 0.055423137 -0.08450412 0.12604885
000020 dd 00 1a be cd ff 01 3e c5 49 89 3d 43 ba c5 bc
       -0.15039392 0.12695237 0.067035235 -0.024136668

classifier.3.weight f4 [12, 32]
000000 38 7e 83 3e 3b 49 dc 3d 79 00 3a 3e 9a e3 23 3e
       0.25682235 0.10756155 0.18164243 0.16004792
000010 3a 12 72 be 99 b0 f5 3d bb fc 4a be 31 98 2e be
       -0.23639765 0.11996574 -0.19822972 -0.17050244
000020 df 3f 73 be 1d 19 64 bd 1f 4f 1d be 69 7a 9e 3c
       -0.23754834 -0.055688012 -0.15362214 0.01934548
000030 ce a6 98 be 26 ec 86 3d 67 44 94 be 79 d4 71 be
       -0.29814762 0.065880105 -0.28958437 -0.23616208
000040 ab 2f 14 be 15 d9 84 be 98 ef fd 3d fc 5b 59 3e
       -0.14471309 -0.2594687 0.123992145 0.21226496
000050 dc 4c 83 bc a4 39 5f be 28 1c 65 3e 3b 01 14 be
       -0.01602786 -0.21799332 0.22374022 -0.14453594
000060 f5 a9 a9 bc 94 ab 07 3e 50 53 49 be b8 e9 dc 3d
       -0.020710925 0.13249046 -0.19660687 0.10786766
000070 36 d4 3a 3c c0 24 e8 3d 65 01 53 bd 48 bf 56 bd
       0.011403134 0.113351345 -0.051515 -0.052428514
000080 69 8f c3 bd 07 84 2f 3e 82 27 8e bd ca e5 43 3e
       -0.09548838 0.17140208 -0.06941129 0.19130626
000090 7e 12 3c 3e ad 66 de bc d1 74 41 be 69 af 31 3e
       0.18366429 -0.027148569 -0.18892218 0.1735207
0000a0 d9 62 86 3d cb e8 81 be aa 2c 98 3e c0 de 67 3d
       0.065618224 -0.2537292 0.29721576 0.056608915
0000b0 24 ae 40 bc 56 01 82 be a7 2f 85 3e 81 43 9b 3e
       -0.011760268 -0.25391644 0.26012918 0.3032494
0000c0 33 3d 20 be c9 64 8c 3d cd 3b 35 3d e4 99 8c be
       -0.15648346 0.06855161 0.044246484 -0.2746116
0000d0 3d 8d 90 3e 8f 57 1e be ee d1 48 be 06 86 c1 bd
       0.28232756 -0.15463088 -0.19611332 -0.09449391
0000e0 f5 dc 47 3e 69 65 ae bd eb 2e 41 3e 35 26 8e be
       0.19517882 -0.08515436 0.18865554 -0.27763525
0000f0 b8 98 04 be 1b 92 08 be eb 81 76 be b7 51 7d be
       -0.12948883 -0.13336985 -0.24072997 -0.24738203
000100 80 7a d0 bd 0b 67 39 be 36 df d4 3c a8 05 4b be
       -0.10179615 -0.18105714 0.025985342 -0.19826376
000110 ba cc 04 3d 0a 64 03 3e 6a 33 5b be b3 d8 d9 bd
       0.032421805 0.1283113 -0.21406332 -0.10637035
000120 72 93 58 be 3a 21 11 bb a4 96 38 be ff 1e 4e 3e
       -0.21149996 -0.0022145049 -0.18026215 0.20129012
000130 d9 d5 53 3e 7d 8a 11 be 68 41 98 bd a4 0c e7 bc
       0.20687045 -0.14212985 -0.0743435 -0.02820427
000140 96 00 f8 bc 43 58 4c be 46 9c 4e be 69 4a 0d 3e
       -0.030273717 -0.19955544 -0.20176801 0.13797916
000150 b3 02 65 be d2 40 1e 3e 28 d9 dc 3a 2c 6a 3b 3e
       -0.22364311 0.15454414 0.0016849386 0.1830222
000160 db 54 0b 3c 07 6a 73 3c 4b e8 81 be d3 fe 97 bd
       0.008504118 0.014856822 -0.25372538 -0.07421651
000170 3a 31 b3 3d a4 43 47 3d e3 2b df 3d 09 0f 4d 3e
       0.087496236 0.04864849 0.108970426 0.20025267
000180 8a d2 4d be 4a 40 29 3e d4 56 25 3e 48 f1 8d 3e
       -0.20099846 0.1652843 0.16146404 0.27723145
000190 9d 28 1f 3a 6f 42 23 be 8b 84 05 be 57 56 80 be
       0.00060714205 -0.15943311 -0.13038842 -0.25065872
0001a0 a5 6d aa bd 52 c2 f4 bd e4 4e 8d 3e 5d eb 04 3e
       -0.08321694 -0.11951126 0.2759925 0.12980409
0001b0 50 34 83 be 4c 6b 6a 3e cd 00 7b be 74 4e e1 bc
       -0.2562585 0.22892493 -0.24512024 -0.02750323
0001c0 40 ee 30 3d fa 33 fe 3d e9 f4 6d 3e bd a1 00 bd
       0.043195963 0.124122575 0.23237957 -0.031404246
0001d0 92 22 8c 3e 8e 79 c5 bd 85 09 de bd d8 c4 30 be
       0.27370125 -0.09642325 -0.108416595 -0.1726259
0001e0 38 20 c6 bd 90 4a 07 be 85 33 05 bd d0 1e d5 3a
       -0.09674114 -0.13212037 -0.032519836 0.0016259793
0001f0 8a 48 de bd 37 b9 00 3e ca 59 fe bd f1 72 51 be
       -0.108536795 0.12570654 -0.1241947 -0.20454003
000200 c6 c7 0e 3e 93 57 8c be 6d 6b e3 bd 2f cb 35 3d
       0.13943395 -0.27410564 -0.11104474 0.044383224
000210 27 60 62 be 0a ca 45 3e 3a 2d d0 3d 3e 0c 1a be
       -0.22106992 0.19315353 0.10164876 -0.15043733
000220 e4 e0 d4 bc 12 fd 5d be 24 87 aa bc 9e 1c 92 3c
       -0.025986142 -0.2167857 -0.020816393 0.017835911
000230 b7 62 36 3e ce 10 87 bd c1 5a 40 be 3c cf 66 be
       0.17811094 -0.06595002 -0.1878462 -0.22539991
000240 07 d8 2c 3e 3f dc 11 bd 82 96 fd 3c 33 9e 6a 3d
       0.16879283 -0.035610434 0.030955557 0.057279777
000250 36 71 91 bc 0a 16 2d bd ba bf 2f 3e 49 78 55 3e
       -0.017754178 -0.042257346 0.17162982 0.20846666
000260 e6 63 56 be f6 58 4a be a7 29 7f be be 0c 07 be
       -0.20936546 -0.19760498 -0.24918233 -0.13188455
000270 93 75 17 3e 4d 19 87 be b5 71 89 3e e8 f9 52 3c
       0.14790945 -0.2638649 0.26844564 0.012876965
000280 74 76 2b be 67 15 0c 3e af 2e 4b be 1e 62 ff 3d
       -0.16744405 0.1368004 -0.19842027 0.12469886
000290 a0 42 92 be 16 b9 8d be fe ea 25 3e 61 38 45 be
       -0.28566456 -0.27680272 0.16202924 -0.19259788
0002a0 11 0f 73 3e 34 2a 4e be 17 69 41 3e 58 5a 99 3d
       0.23736216 -0.20133287 0.18887745 0.07487935
0002b0 53 c1 40 3d b0 85 0d be d1 59 07 3e ed 5f 1b bc
       0.04705937 -0.13820529 0.13217856 -0.00948332
0002c0 dd ac 23 3e 7c 28 74 3d 8a ea 10 be 69 c3 83 be
       0.15983911 0.05960892 -0.1415197 -0.25735024
0002d0 80 f3 79 3e 37 70 5b be 69 8c 12 be e7 1b 05 3e
       0.24409294 -0.21429525 -0.14311375 0.12998925
0002e0 b9 08 6e be e5 7a 9d bd 14 65 87 3e d5 06 f2 3b
       -0.23245515 -0.07689456 0.26444304 0.0073860683
0002f0 21 6c 55 3e 0b ea 61 be 94 1e 66 bd 9d e3 a3 bc
       0.20842029 -0.22061937 -0.056181505 -0.020005995
000300 ab fb 17 bc 0e 54 1e be c5 fe 1f be f7 39 95 3d
       -0.009276311 -0.15461752 -0.1562453 0.072864465
000310 ba b5 69 3e 3e 36 76 be c3 da 6e 3e 76 4f 83 3e
       0.2282323 -0.24044129 0.23325638 0.2564656
000320 97 14 2f be 43 57 03 3e 4d 78 d3 3b 3a 1d 90 be
       -0.17097698 0.12826256 0.00645355 -0.28147298
000330 c9 69 87 bc 5f a1 63 3e 52 5a 14 be 9a 32 69 be
       -0.016529934 0.22229527 -0.1448758 -0.22773209
000340 19 1c 72 be ed be 59 3e 64 49 a4 bd 9f 35 df bd
       -0.23643531 0.21264239 -0.08021811 -0.10898899
000350 fd 8c 9c bd 09 15 f3 bc 77 8c f9 3d bc 0e d1 bd
       -0.07644079 -0.029673116 0.12184995 -0.102078885
000360 26 e0 4a be 1d 98 54 3e 58 b8 33 3e 59 34 cc 3d
       -0.19812068 0.20761152 0.1755079 0.09970922
000370 ff 74 61 be 30 2b 26 be 4e 11 3a 3e fc 71 31 3d
       -0.22017287 -0.16227412 0.18170664 0.043321595
000380 b1 53 58 be 63 0e fd 3d 9f d3 e3 bd 12 76 d5 3c
       -0.21125676 0.1235626 -0.11124348 0.026057277
000390 75 2b 54 bc 0c 0c 08 be 81 aa 18 be c2 a2 d0 3d
       -0.012949814 -0.13285846 -0.14908792 0.101872936
0003a0 f5 cd 71 be 73 58 7e 3e fb 44 0c 3e 23 21 51 bd
       -0.23613723 0.24838428 0.13698189 -0.051056992
0003b0 3e e3 12 be 3f 17 2c 3d e3 0e f4 bd dc 4d 17 be
       -0.14344499 0.042014357 -0.11916902 -0.14775795
0003c0 69 3c 58 bc ea 8f 08 3e d9 df e8 3d 35 ad 7b be
       -0.013197997 0.13336149 0.113708206 -0.24577792
0003d0 c5 b6 7d 3e e4 06 2b be ca a6 fa bd 44 05 54 be
       0.24776752 -0.16701847 -0.12238844 -0.20705134
0003e0 bd 46 8b 3e ee 19 a1 3c 5e 07 45 3e 03 61 4d 3e
       0.27202407 0.019665685 0.19241092 0.20056538
0003f0 16 70 e8 bd 0d e4 9c 3d 4c e8 12 be d7 05 81 be
       -0.11349504 0.07660685 -0.14346427 -0.25199768
